…
            "tool_call_id": "forge_80",
            "function_name": "execute_bash",
            "arguments": {
              "command": "tail -n 80 /app/caffe/training_output.txt"
            }
          }
        ],
        "observation": {
          "results": [
            {
              "content": "I20260307 08:19:09.287377  5261 net.cpp:84] Creating Layer pool3\nI20260307 08:19:09.287401  5261 net.cpp:406] pool3 <- conv3\nI20260307 08:19:09.287420  5261 net.cpp:380] pool3 -> pool3\nI20260307 08:19:09.287439  5261 net.cpp:122] Setting up pool3\nI20260307 08:19:09.287456  5261 net.cpp:129] Top shape: 100 64 4 4 (102400)\nI20260307 08:19:09.287470  5261 net.cpp:137] Memory required for data: 31950000\nI20260307 08:19:09.287497  5261 layer_factory.hpp:77] Creating layer ip1\nI20260307 08:19:09.287521  5261 net.cpp:84] Creating Layer ip1\nI20260307 08:19:09.287536  5261 net.cpp:406] ip1 <- pool3\nI20260307 08:19:09.287555  5261 net.cpp:380] ip1 -> ip1\nI20260307 08:19:09.288579  5261 net.cpp:122] Setting up ip1\nI20260307 08:19:09.288630  5261 net.cpp:129] Top shape: 100 64 (6400)\nI20260307 08:19:09.288650  5261 net.cpp:137] Memory required for data: 31975600\nI20260307 08:19:09.288664  5261 layer_factory.hpp:77] Creating layer ip2\nI20260307 08:19:09.288683  5261 net.cpp:84] Creating Layer ip2\nI20260307 08:19:09.288699  5261 net.cpp:406] ip2 <- ip1\nI20260307 08:19:09.288713  5261 net.cpp:380] ip2 -> ip2\nI20260307 08:19:09.288746  5261 net.cpp:122] Setting up ip2\nI20260307 08:19:09.288764  5261 net.cpp:129] Top shape: 100 10 (1000)\nI20260307 08:19:09.288777  5261 net.cpp:137] Memory required for data: 31979600\nI20260307 08:19:09.288793  5261 layer_factory.hpp:77] Creating layer ip2_ip2_0_split\nI20260307 08:19:09.288815  5261 net.cpp:84] Creating Layer ip2_ip2_0_split\nI20260307 08:19:09.288827  5261 net.cpp:406] ip2_ip2_0_split <- ip2\nI20260307 08:19:09.288846  5261 net.cpp:380] ip2_ip2_0_split -> ip2_ip2_0_split_0\nI20260307 08:19:09.288861  5261 net.cpp:380] ip2_ip2_0_split -> ip2_ip2_0_split_1\nI20260307 08:19:09.288874  5261 net.cpp:122] Setting up ip2_ip2_0_split\nI20260307 08:19:09.288885  5261 net.cpp:129] Top shape: 100 10 (1000)\nI20260307 08:19:09.288901  5261 net.cpp:129] Top shape: 100 10 (1000)\nI20260307 08:19:09.288913  5261 net.cpp:137] Memory required for data: 31987600\nI20260307 08:19:09.288930  5261 layer_factory.hpp:77] Creating layer accuracy\nI20260307 08:19:09.288950  5261 net.cpp:84] Creating Layer accuracy\nI20260307 08:19:09.288962  5261 net.cpp:406] accuracy <- ip2_ip2_0_split_0\nI20260307 08:19:09.288978  5261 net.cpp:406] accuracy <- label_cifar_1_split_0\nI
…
