…
              "command": "tail -n 80 /app/caffe/training_output.txt"
            }
          }
        ],
        "observation": {
          "results": [
            {
              "content": "I20260307 07:37:00.942035  8576 net.cpp:137] Memory required for data: 29902000\nI20260307 07:37:00.942046  8576 layer_factory.hpp:77] Creating layer relu3\nI20260307 07:37:00.942054  8576 net.cpp:84] Creating Layer relu3\nI20260307 07:37:00.942061  8576 net.cpp:406] relu3 <- conv3\nI20260307 07:37:00.942071  8576 net.cpp:367] relu3 -> conv3 (in-place)\nI20260307 07:37:00.942082  8576 net.cpp:122] Setting up relu3\nI20260307 07:37:00.942090  8576 net.cpp:129] Top shape: 100 64 8 8 (409600)\nI20260307 07:37:00.942096  8576 net.cpp:137] Memory required for data: 31540400\nI20260307 07:37:00.942102  8576 layer_factory.hpp:77] Creating layer pool3\nI20260307 07:37:00.942112  8576 net.cpp:84] Creating Layer pool3\nI20260307 07:37:00.942119  8576 net.cpp:406] pool3 <- conv3\nI20260307 07:37:00.942131  8576 net.cpp:380] pool3 -> pool3\nI20260307 07:37:00.942143  8576 net.cpp:122] Setting up pool3\nI20260307 07:37:00.942154  8576 net.cpp:129] Top shape: 100 64 4 4 (102400)\nI20260307 07:37:00.942173  8576 net.cpp:137] Memory required for data: 31950000\nI20260307 07:37:00.942184  8576 layer_factory.hpp:77] Creating layer ip1\nI20260307 07:37:00.942195  8576 net.cpp:84] Creating Layer ip1\nI20260307 07:37:00.942202  8576 net.cpp:406] ip1 <- pool3\nI20260307 07:37:00.942214  8576 net.cpp:380] ip1 -> ip1\nI20260307 07:37:00.942850  8576 net.cpp:122] Setting up ip1\nI20260307 07:37:00.942867  8576 net.cpp:129] Top shape: 100 64 (6400)\nI20260307 07:37:00.942878  8576 net.cpp:137] Memory required for data: 31975600\nI20260307 07:37:00.942888  8576 layer_factory.hpp:77] Creating layer ip2\nI20260307 07:37:00.942900  8576 net.cpp:84] Creating Layer ip2\nI20260307 07:37:00.942912  8576 net.cpp:406] ip2 <- ip1\nI20260307 07:37:00.942924  8576 net.cpp:380] ip2 -> ip2\nI20260307 07:37:00.942956  8576 net.cpp:122] Setting up ip2\nI20260307 07:37:00.942968  8576 net.cpp:129] Top shape: 100 10 (1000)\nI20260307 07:37:00.942975  8576 net.cpp:137] Memory required for data: 31979600\nI20260307 07:37:00.942986  8576 layer_factory.hpp:77] Creating layer ip2_ip2_0_split\nI20260307 07:37:00.942996  8576 net.cpp:84] Creating Layer ip2_ip2_0_split\nI20260307 07:37:00.943004  8576 net.cpp:406] ip2_ip2_0_split <- ip2\nI20260307 07:37:00.943015  8576 net.cpp:380] ip2_ip2_0_split -> ip2_ip2_0_split_0\nI20260307 07:37:00.943024  8576 net.cpp:380] ip2_ip2_0_split -> ip2_ip2_0_split_1\nI20260307 07:37:00.943037  8576 net.cpp:122] Setting up ip2_ip2_0_split\nI20260307 07:37:00.943048  8576 net.cpp:129] Top shape: 100 10 (1000)\nI20260307 07:37:00.943058  8576 net.cpp:129] Top shape: 100 10 (1000)\nI20260307 07:37:00.943064  8576 net.cpp:137] Memory required for data: 31987600\nI20260307 07:37:00.943073  8576 layer_factory.hpp:77] Creating layer accuracy\nI20260307 07:37:00.943085  8576 net.cpp:84] Creating Layer accuracy\nI20260307 07:37:00.943092  8576 net.cpp:406] accuracy <- ip2_ip2_0_split_0\nI20260307 07:37:00.943101  8576 net.cpp:406] accuracy <- label_cifar_1_split_0\nI
…
