…
              "command": "sleep 20; tail -n 80 /app/caffe/training_output.txt"
            }
          }
        ],
        "observation": {
          "results": [
            {
              "content": "I20260307 06:45:04.963919  3819 net.cpp:137] Memory required for data: 29902000\nI20260307 06:45:04.963934  3819 layer_factory.hpp:77] Creating layer relu3\nI20260307 06:45:04.963948  3819 net.cpp:84] Creating Layer relu3\nI20260307 06:45:04.963959  3819 net.cpp:406] relu3 <- conv3\nI20260307 06:45:04.963979  3819 net.cpp:367] relu3 -> conv3 (in-place)\nI20260307 06:45:04.964010  3819 net.cpp:122] Setting up relu3\nI20260307 06:45:04.964025  3819 net.cpp:129] Top shape: 100 64 8 8 (409600)\nI20260307 06:45:04.964037  3819 net.cpp:137] Memory required for data: 31540400\nI20260307 06:45:04.964049  3819 layer_factory.hpp:77] Creating layer pool3\nI20260307 06:45:04.964061  3819 net.cpp:84] Creating Layer pool3\nI20260307 06:45:04.964071  3819 net.cpp:406] pool3 <- conv3\nI20260307 06:45:04.964088  3819 net.cpp:380] pool3 -> pool3\nI20260307 06:45:04.964107  3819 net.cpp:122] Setting up pool3\nI20260307 06:45:04.964133  3819 net.cpp:129] Top shape: 100 64 4 4 (102400)\nI20260307 06:45:04.964155  3819 net.cpp:137] Memory required for data: 31950000\nI20260307 06:45:04.964166  3819 layer_factory.hpp:77] Creating layer ip1\nI20260307 06:45:04.964184  3819 net.cpp:84] Creating Layer ip1\nI20260307 06:45:04.964196  3819 net.cpp:406] ip1 <- pool3\nI20260307 06:45:04.964211  3819 net.cpp:380] ip1 -> ip1\nI20260307 06:45:04.965224  3819 net.cpp:122] Setting up ip1\nI20260307 06:45:04.965262  3819 net.cpp:129] Top shape: 100 64 (6400)\nI20260307 06:45:04.965283  3819 net.cpp:137] Memory required for data: 31975600\nI20260307 06:45:04.965297  3819 layer_factory.hpp:77] Creating layer ip2\nI20260307 06:45:04.965317  3819 net.cpp:84] Creating Layer ip2\nI20260307 06:45:04.965328  3819 net.cpp:406] ip2 <- ip1\nI20260307 06:45:04.965346  3819 net.cpp:380] ip2 -> ip2\nI20260307 06:45:04.965379  3819 net.cpp:122] Setting up ip2\nI20260307 06:45:04.965394  3819 net.cpp:129] Top shape: 100 10 (1000)\nI20260307 06:45:04.965409  3819 net.cpp:137] Memory required for data: 31979600\nI20260307 06:45:04.965423  3819 layer_factory.hpp:77] Creating layer ip2_ip2_0_split\nI20260307 06:45:04.965443  3819 net.cpp:84] Creating Layer ip2_ip2_0_split\nI20260307 06:45:04.965456  3819 net.cpp:406] ip2_ip2_0_split <- ip2\nI20260307 06:45:04.965468  3819 net.cpp:380] ip2_ip2_0_split -> ip2_ip2_0_split_0\nI20260307 06:45:04.965481  3819 net.cpp:380] ip2_ip2_0_split -> ip2_ip2_0_split_1\nI20260307 06:45:04.965545  3819 net.cpp:122] Setting up ip2_ip2_0_split\nI20260307 06:45:04.965564  3819 net.cpp:129] Top shape: 100 10 (1000)\nI20260307 06:45:04.965575  3819 net.cpp:129] Top shape: 100 10 (1000)\nI20260307 06:45:04.965586  3819 net.cpp:137] Memory required for data: 31987600\nI20260307 06:45:04.965598  3819 layer_factory.hpp:77] Creating layer accuracy\nI20260307 06:45:04.965616  3819 net.cpp:84] Creating Layer accuracy\nI20260307 06:45:04.965631  3819 net.cpp:406] accuracy <- ip2_ip2_0_split_0\nI20260307 06:45:04.965646  3819 net.cpp:406] accuracy <- label_cifar_1_split_0\nI
…
